leNet.pth (torch, 249839 bytes, 10 tensors)

model.0.weight f4 [6, 1, 5, 5]
0	0x3beb9131	0.007188939
1	0xbe16aa5f	-0.14713429
2	0xbeb12f1f	-0.34606263
3	0xbebbaca1	-0.36655143
4	0xbe5f72a0	-0.2182107
5	0xbe3f4d42	-0.18681815
6	0xbec72ca8	-0.38901258
7	0xbef80b18	-0.48445964
8	0xbe943179	-0.28943995
9	0xbd35fec8	-0.04443243
10	0xbe91b3e8	-0.2845757
11	0xbebb22d9	-0.36550024
12	0xbe2f411f	-0.17114685
13	0x3e7ae1d6	0.24500212
14	0x3e955489	0.29166058
15	0xbe2a3c97	-0.16624676
16	0xbdf45e1e	-0.11932014
17	0x3e806d90	0.2508359
18	0x3f14d3d7	0.5813574
19	0x3e8edfbf	0.2790508
20	0xbcce8203	-0.025208479
21	0x3d362c9f	0.044476148
22	0x3ec18cf6	0.37802857
23	0x3f0f4335	0.55961925
24	0x3e7e3fe7	0.24829064
25	0x3d9d9b69	0.07695658
26	0xbee8f957	-0.4550273
27	0xbf54a46b	-0.8306338
28	0xbf69b2e2	-0.9128858
29	0xbf2eb0ed	-0.6823872
30	0x3eb73d96	0.35789174
31	0x3e865f85	0.2624475
32	0x3e20e732	0.15713194
33	0xbd25b11b	-0.040452104
34	0xbe1a54f6	-0.15071473
35	0x3ee4f048	0.4471457
36	0x3f7382eb	0.9512164
37	0x3f948ce8	1.1605501
38	0x3f6b577f	0.91930383
39	0x3f0188b5	0.50599223
40	0xbe40e450	-0.18837094
41	0x3dfe5d9e	0.124202
42	0x3ec8734f	0.39150473
43	0x3ec5519a	0.3853882
44	0x3ea4f391	0.32217076
45	0xbf2271bb	-0.6345479
46	0xbf50d077	-0.8156809
47	0xbf3bc4a6	-0.73346937
48	0xbf056d3f	-0.5211982
49	0xbe2e4386	-0.17017946
50	0xbc3cd798	-0.011526011
51	0xbdc5f286	-0.09665398
52	0x3e8477fa	0.25872785
53	0x3f343405	0.70391876
54	0x3f1e229f	0.6177158
55	0xbe4f2514	-0.20228988
56	0xbe1753f5	-0.14778121
57	0x3e5afc2a	0.21385255
58	0x3f2e4a73	0.6808235
59	0x3f23cec6	0.63987386
60	0xbefd4aad	-0.49471036
61	0xbefdf528	-0.49601102
62	0xbe8f1395	-0.27944627
63	0x3e3804fb	0.1797065
64	0x3ec01aac	0.3752035
65	0xbf1bd9ae	-0.6087903
66	0xbf36f268	-0.7146363
67	0xbf3379ad	-0.7010754
68	0xbec75301	-0.38930514
69	0xbd642f7d	-0.05570935
70	0xbe35edc9	-0.17766489
71	0xbea41a4c	-0.32051313
72	0xbef2177b	-0.4728354
73	0xbeae985a	-0.3410061
74	0x3b59271b	0.003313488
75	0xbf46c21f	-0.77639955
76	0xbe2817ce	-0.16415331
77	0x3eb414b3	0.35172042
78	0x3f147b4e	0.5800065
79	0x3f149759	0.5804344
80	0xbe6c9e39	-0.23107232
81	0x3f2251c1	0.63405997
82	0x3f4f8500	0.81062317
83	0x3f00ddb9	0.5033832
84	0x3d4a0e87	0.04933026
85	0x3ee963be	0.4558391
86	0x3f2e9533	0.6819641
87	0x3edeae60	0.43492413
88	0xbe39a0d4	-0.18127757
89	0xbf018f82	-0.506096
90	0x3e9ace2e	0.30235428
91	0x3d23b4fa	0.039967515
92	0xbea8cfd4	-0.3297106
93	0xbf117cdf	-0.56831163
94	0xbeed5cc3	-0.46359834
95	0xbe2ff73b	-0.17184155
96	0xbea19eb2	-0.31566387
97	0xbea27d5a	-0.3173626
98	0xbe26e942	-0.16299918
99	0x3d0647aa	0.032783188
100	0x3e8703d2	0.26370102
101	0x3ef678f4	0.48139155
102	0xbe577861	-0.21042015
103	0xbf220d88	-0.633019
104	0xbeb17155	-0.34656778
105	0x3f146d69	0.57979447
106	0x3f0149cc	0.5050323
107	0xbe9a65d6	-0.3015582
108	0xbf2180f4	-0.6308739
109	0xbe794171	-0.2434137
110	0x3f1d26b1	0.61387163
111	0x3e5f9163	0.21832804
112	0xbee28452	-0.44241577
113	0xbf0ef524	-0.55842805
114	0xbe00056d	-0.1250207
115	0x3ef1b83c	0.47210872
116	0xbdc92b49	-0.09822709
117	0xbf08a3d6	-0.53374994
118	0xbed5b698	-0.4174087
119	0x3d3b67b4	0.045753196
120	0x3dd0fbde	0.1020429
121	0xbedc0e92	-0.42979866
122	0xbeec71df	-0.46180627
123	0xbe0dece1	-0.13859893
124	0x3e80ff26	0.25194663
125	0xbde31cbe	-0.110894665
126	0x3d9b53b7	0.07584327
127	0x3e5e7549	0.21724428
128	0xbe2613d6	-0.16218504
129	0xbf42ddba	-0.7611958
130	0xbe995c61	-0.29953292
131	0x3e74e6ad	0.23916121
132	0x3f3dda03	0.74160784
133	0x3e263aa6	0.1623331
134	0xbf6ba812	-0.9205333
135	0xbef87428	-0.4852612
136	0x3e5e3843	0.2170115
137	0x3f7cf510	0.98811436
138	0x3f17be9a	0.5927521
139	0xbf357398	-0.7087951
140	0xbefeb93e	-0.49750704
141	0x3dbf2913	0.09334006
142	0x3f3bf44c	0.7341964
143	0x3f3bf2f4	0.7341759
144	0xbe304b72	-0.1721628
145	0xbef8915b	-0.48548397
146	0xbe47ac1f	-0.19499253
147	0x3e1d782f	0.15377878
148	0x3eddbc84	0.43307889
149	0x3ea74daa	0.3267644

model.0.bias f4 [6]
0	0xbceaced8	-0.028663084
1	0xbe9e2529	-0.30887726
2	0xbd7fafec	-0.06242363
3	0xbe951e93	-0.2912489
4	0xbe0ab859	-0.13546886
5	0xbf22d8cc	-0.63612056

model.3.weight f4 [16, 6, 5, 5]
0	0x3a027fc1	0.0004978143
1	0x374c1afe	1.2165632e-05
2	0x3a614261	0.000859296
3	0x3a99291e	0.0011685228
4	0x3b17da2b	0.002317081
5	0xba1a1b6d	-0.00058787205
6	0x397955f5	0.00023778512
7	0x3a4076a3	0.0007341897
8	0x39b212be	0.0003396477
9	0x3a8867b2	0.001040688
10	0x37e2d078	2.7038375e-05
11	0xb99f10b5	-0.0003033929
12	0xb9aa2ff1	-0.00032460646
13	0xb99a2c6a	-0.0002940626
14	0xb9a33d1b	-0.0003113531
15	0x394cd3b8	0.00019533827
16	0x3aa7f6e9	0.0012814674
17	0xba31331f	-0.0006759632
18	0xb9e8fb8d	-0.00044437908
19	0xba72bb9e	-0.00092595245
20	0x3b062d71	0.0020473863
21	0x392c2d52	0.00016420081
22	0x3a1bda4f	0.0005945311
23	0xba0f1623	-0.0005458316
24	0xba22df42	-0.00062130776
25	0xb99da00c	-0.00030064618
26	0xb9dc3063	-0.0004199772
27	0xb91a1fdf	-0.00014698457
28	0xb93a2990	-0.00017753826
29	0x3994d9c3	0.00028391005
30	0x3a18872c	0.0005818482
31	0x3987358d	0.00025789105
32	0x38bce436	9.007046e-05
33	0xb9823d18	-0.0002484105
34	0xb9e6715e	-0.00043953484
35	0x37c25351	2.31654e-05
36	0x3a64172e	0.0008700964
37	0xb963f0b4	-0.00021738076
38	0xb52dd080	-6.475093e-07
39	0xba789a19	-0.00094834116
40	0xb917b1f9	-0.00014466782
41	0xb95e3556	-0.00021191439
42	0x39358399	0.00017310529
43	0xb8e9febe	-0.00011157755
44	0xba80f199	-0.0009837627
45	0x38bb08bb	8.918481e-05
46	0xba039eaa	-0.0005020896
47	0x38b09ccb	8.421539e-05
48	0x3565a648	8.555112e-07
49	0xb6960a4e	-4.471548e-06
50	0xb9905e23	-0.00027535958
51	0xba515316	-0.0007985098
52	0xb83355c9	-4.275682e-05
53	0xba9abb7d	-0.0011805143
54	0xba5b6299	-0.0008368879
55	0x399f19fc	0.00030346203
56	0xba2112d3	-0.00061444676
57	0xba3345f5	-0.00068387325
58	0xb99066f2	-0.0002754252
59	0xb9bc3a59	-0.00035901627
60	0x3a2e1599	0.00066407915
61	0xb9593599	-0.000207147
62	0xbaa3c5d3	-0.0012494869
63	0xba997376	-0.0011707384
64	0xb84363be	-4.6584515e-05
65	0x3957e774	0.00020590221
66	0xb81b3dc5	-3.7012407e-05
67	0xbac34957	-0.0014899176
68	0xba8d620b	-0.0010786665
69	0x3b16c86a	0.002300764
70	0xba8944bc	-0.0010472755
71	0xbb09034d	-0.0020906508
72	0xba9eb1cd	-0.0012107432
73	0xba039f7f	-0.000502102
74	0x3b0c8a20	0.0021444634
75	0xba4394e6	-0.0007460847
76	0xba31b193	-0.0006778475
77	0xba85f6fd	-0.0010220703
78	0xba302640	-0.0006719567
79	0x3a68dc9b	0.00088829704
80	0xba695022	-0.00089001853
81	0xba9b2167	-0.0011835516
82	0xba742a6f	-0.00093141844
83	0xba2175dd	-0.00061592256
84	0x398fef0c	0.0002745319
85	0xba733ffb	-0.0009279248
86	0xba48fa1a	-0.00076666626
87	0xba7f1431	-0.0009730487
88	0x3a3eb530	0.0007274924
89	0x3935a8c8	0.00017324381
90	0xba89a642	-0.0010501819
91	0xb90a0527	-0.00013162625
92	0xba317241	-0.00067690393
93	0x3ab48b94	0.0013774508
94	0x3974a0eb	0.000233296
95	0xb9ebb601	-0.00044958296
96	0x3a2369df	0.00062337326
97	0x3908cb35	0.00013045671
98	0x3a059ad0	0.0005096616
99	0xb9fdef1f	-0.0004843408
100	0xb9a353d9	-0.00031152254
101	0x3985d20b	0.0002552423
102	0x390b5999	0.0001328945
103	0x38c20e27	9.253277e-05
104	0xb9e0da0f	-0.00042887076
105	0x382bfd65	4.100557e-05
106	0x39b284c2	0.00034049718
107	0xba3dfc01	-0.00072473293
108	0x37d708da	2.5634119e-05
109	0x39928219	0.0002794422
110	0xba468088	-0.0007572253
111	0x39cb2595	0.00038747178
112	0x3857fcf7	5.1495586e-05
113	0xb9c7f323	-0.0003813739
114	0x3a16fd2e	0.00057597726
115	0xb9b1106d	-0.0003377231
116	0xba9069c4	-0.0011017849
117	0xb9933930	-0.00028080633
118	0xba82f35b	-0.0009990738
119	0x3a8c45f1	0.0010701997
120	0x3a136d00	0.0005623847
121	0xb861ef89	-5.3867265e-05
122	0xba8da859	-0.0010807618
123	0x396226be	0.00021567472
124	0x3aa22102	0.0012369456
125	0x394f724f	0.00019783642
126	0x39c3b774	0.00037329982
127	0x393db5bd	0.00018092147
128	0x38168f3e	3.589619e-05
129	0x3a81e19a	0.0009909153
130	0x3a5f3858	0.0008515171
131	0xb9d93a7c	-0.0004143304
132	0xba9502be	-0.0011368615
133	0xb7937f4d	-1.7583045e-05
134	0x3ad923d1	0.001656646
135	0xb95f06bc	-0.00021269446
136	0xb9c8fef3	-0.00038336925
137	0xba7c83b8	-0.0009632665
138	0xba54a514	-0.0008111757
139	0x3aa2a24e	0.001240799
140	0xb94b69b3	-0.00019398965
141	0xb993a63b	-0.00028161876
142	0xb948d374	-0.00019152259
143	0xba9167a3	-0.0011093508
144	0xba801c83	-0.0009774122
145	0x3870d600	5.7419762e-05
146	0xba07335d	-0.0005157495
147	0xbaa826f7	-0.0012828995
148	0xba77b411	-0.0009449134
149	0xba23eb5d	-0.00062530284
150	0xbd894c7b	-0.067040406
151	0xbe2a48aa	-0.16629282
152	0xbe046b54	-0.12931567
153	0x3a6d1a82	0.00090447825
154	0x3e82fb89	0.2558253
155	0xbe43a2ee	-0.19105121
156	0xbe25dca3	-0.16197447
157	0xbd9cb140	-0.07650995
158	0xbcb1637d	-0.021653885
159	0xbe589c6c	-0.2115342
160	0xbe793621	-0.24337055
161	0xbe92e9c8	-0.28693986
162	0xbeb126e1	-0.34599975
163	0xbef5beed	-0.47997227
164	0xbefa18c8	-0.48847032
165	0xbde5e610	-0.112255216
166	0xbd3649b8	-0.044503897
167	0x3e2027b9	0.15640153
168	0x3eab7ff6	0.33496064
169	0x3ea06481	0.31326678
170	0x3e64732c	0.2230956
171	0x3e8f8ed9	0.28038672
172	0x3deaae37	0.1145901
173	0xbd783a61	-0.06060255
174	0xbe0630cb	-0.1310455
175	0x3deea9f7	0.11653512
176	0x3cc2f153	0.023796713
177	0xbda892e0	-0.08231139
178	0xbe0b06bc	-0.13576788
179	0xbc5bf25a	-0.01342448
180	0x3ebb4d75	0.36582533
181	0x3e27416e	0.16333553
182	0x3d75921f	0.059953805
183	0x3d75cffd	0.060012806
184	0x3da33801	0.07969666
185	0x3e9e78cd	0.3095154
186	0x3eb832b8	0.35976195
187	0x3ec21273	0.379047
188	0x3dc11fa2	0.094298616
189	0xbe8cba0c	-0.27485693
190	0x3c51d16d	0.012806279
191	0xbd1df65d	-0.03856503
192	0xbd08c5ab	-0.033391636
193	0x3d7a9ed0	0.06118661
194	0x3eaa66b1	0.33281472
195	0x3e5862af	0.21131395
196	0x3dac023f	0.08398866
197	0x3dd8bece	0.10583268
198	0x3eaba593	0.3352476
199	0x3ecf8fdd	0.40539446
200	0xbdd07fee	-0.10180651
201	0xbdc74d6b	-0.09731563
202	0xbe3acd77	-0.18242441
203	0xbe2f389b	-0.17111437
204	0xbe69db34	-0.22837526
205	0x3e64f95e	0.22360751
206	0x3e4cea17	0.20011173
207	0x3e6fd157	0.234197
208	0x3ea3023b	0.3183764
209	0x3e5ecf74	0.21758825
210	0x3dfdde41	0.12395907
211	0x3e99e21c	0.3005532
212	0x3ec6509e	0.3873338
213	0x3dd1f181	0.10251141
214	0xbe71e17c	-0.23621172
215	0xbe3404d8	-0.17579973
216	0xbe833314	-0.25624907
217	0xbef8b776	-0.4857747
218	0xbf3ca250	-0.7368517
219	0xbef607be	-0.48052782
220	0xbeb4c5e8	-0.3530724
221	0xbeb120ce	-0.3459534
222	0xbe2d357a	-0.16914931
223	0x3e8ece26	0.27891654
224	0x3ecb1ede	0.39671987
225	0x3db293b1	0.08719576
226	0xbba87206	-0.005140546
227	0x3d4012ca	0.04689292
228	0x3e1314a6	0.14363346
229	0x3dce22bf	0.10065221
230	0x3dddc170	0.10827911
231	0xbdd9e5e4	-0.10639551
232	0xbe028cf9	-0.1274909
233	0x3e4e0faa	0.20123163
234	0x3ec81f0d	0.3908619
235	0xbe1c4f41	-0.15264608
236	0xbe46799d	-0.1938233
237	0x3d49d53a	0.049275614
238	0x3e34687b	0.17617981
239	0xbe8fabfb	-0.28060898
240	0xbef1058d	-0.47074547
241	0xbe970e8e	-0.29503292
242	0xbe9beff6	-0.30456513
243	0xbec3bb92	-0.38229042
244	0xbe923435	-0.28555456
245	0xbdea786b	-0.11448749
246	0xbe83e7b9	-0.25762728
247	0xbe82e7d0	-0.25567484
248	0x3c8a9f79	0.016921746
249	0x3ea74e0e	0.32676739
250	0xbc309828	-0.010778464
251	0xbaf9e761	-0.0019066149
252	0xbc8c5019	-0.017128037
253	0xbdf46994	-0.119342
254	0x3ba02c27	0.004888076
255	0xbd220877	-0.039558854

model.3.bias f4 [16]
0	0xbac10a6d	-0.0014727839
1	0xbcdbaf8b	-0.026817104
2	0xbdb607c6	-0.088882014
3	0xbe5eaab0	-0.217448
4	0xbc91d626	-0.01780231
5	0xbe424006	-0.18969736
6	0xbb0e18b7	-0.0021682212
7	0xbc94203c	-0.018081777
8	0x3e37f929	0.17966141
9	0xbd8f3e16	-0.06994264
10	0xbb65c605	-0.0035060656
11	0xbe6f25b9	-0.23354234
12	0x3b81b8fb	0.003958819
13	0x3e117a57	0.14206825
14	0x3b7adf42	0.0038280045
15	0xbc03523f	-0.008015214

model.7.weight f4 [120, 400]
0	0x3975aa23	0.00023428402
1	0x379de1af	1.882095e-05
2	0x378b66fb	1.6618045e-05
3	0xb9cca85e	-0.00039035355
4	0xb7dc3c5b	-2.6254149e-05
5	0x37e37fa4	2.7119946e-05
6	0xb9aabcef	-0.00032565693
7	0x388c5546	6.6916036e-05
8	0xb770afce	-1.43460475e-05
9	0xb9560e79	-0.00020414022
10	0xb94fa247	-0.00019801511
11	0x381f16f7	3.792994e-05
12	0xb90dd53b	-0.00013526242
13	0xb8bada6b	-8.909855e-05
14	0x398abbde	0.00026461383
15	0x39ac78d1	0.00032896412
16	0x36fc0655	7.5109224e-06
17	0x39a62c3b	0.00031694942
18	0xb9e4b231	-0.00043620312
19	0xb983417b	-0.00025035054
20	0x381bc253	3.713586e-05
21	0x38946a74	7.0770184e-05
22	0x38849b1d	6.3231426e-05
23	0x39acfce4	0.00032994815
24	0xb899d18b	-7.334639e-05
25	0xbc4b6077	-0.012413136
26	0xbc2eca32	-0.010668324
27	0x3b3177c4	0.0027079443
28	0xbbf5abd0	-0.0074972883
29	0x3a04cc5f	0.0005065854
30	0xbd750322	-0.05981744
31	0x3bbe0a0a	0.0057995366
32	0xbb090817	-0.0020909363
33	0xbc90aa46	-0.017659318
34	0x3ad1be29	0.0016002107
35	0xbd853e54	-0.06506029
36	0xbcbc37ee	-0.022975888
37	0x3c511227	0.0127606755
38	0x3bff31a1	0.0077878986
39	0x3aa768ad	0.0012772285
40	0x3cf41bbf	0.029798387
41	0x3c21eb99	0.009882831
42	0xbc8f2630	-0.017474264
43	0xbd0c0010	-0.034179747
44	0x3c3f54bf	0.01167792
45	0xbc851090	-0.01624325
46	0xbd99dc79	-0.07512755
47	0xbcfb09e6	-0.030644368
48	0xbc83f287	-0.016106857
49	0xbc2f1a42	-0.010687413
50	0xbc719fe9	-0.014747598
51	0xbbc1dc8f	-0.005916185
52	0xbcd53af7	-0.026029093
53	0xbc017a0c	-0.007902633
54	0x3c0d3545	0.0086186575
55	0xbcc0f38f	-0.023553638
56	0x3abc3eff	0.0014362036
57	0xbce5f68c	-0.028071664
58	0xbab3641e	-0.0013686453
59	0xbc018cb1	-0.007907079
60	0xbc96dec9	-0.01841678
61	0xbbc0959c	-0.00587721
62	0x38d3ba45	0.000100959594
63	0xbce74ae4	-0.028233953
64	0xbbc6b436	-0.0060639633
65	0xbd0f0dce	-0.034925275
66	0x3c26faf3	0.010191667
67	0xbc554227	-0.01301626
68	0xbc20580f	-0.00978662
69	0xbbb48da5	-0.0055100494
70	0xbc2ed7eb	-0.010671596
71	0x3cd089f6	0.02545641
72	0xbc17f92a	-0.009275714
73	0x3c8d0fee	0.01721951
74	0x3c3702e1	0.01117012
75	0x3a48ed3e	0.00076647464
76	0x3bd5b4eb	0.0065218112
77	0x3ca8c445	0.020601401
78	0x3d3a44e4	0.045475855
79	0x3b4673c6	0.0030281409
80	0xbc98680d	-0.018604303
81	0xbc6e6145	-0.014549558
82	0x3b070747	0.0020603703
83	0x3b4bd4b4	0.0031102123
84	0x3ca12d44	0.019674905
85	0x3c26254d	0.010140729
86	0x3cbb7f57	0.022887869
87	0x3d2fd70d	0.042929698
88	0xbcc322fd	-0.023820395
89	0xbcc4eb25	-0.024037907
90	0x3b9e7dbb	0.0048367656
91	0x3d0d52ae	0.034502678
92	0xbcc32a42	-0.023823861
93	0xbd05db59	-0.03267989
94	0xbd3a8fe2	-0.045547374
95	0x3ba165b3	0.0049254536
96	0xbca20f6a	-0.01978274
97	0xbccc3d8e	-0.024931695
98	0xbd35718f	-0.04429775
99	0xbc336fdb	-0.010951961
100	0x3933f990	0.0001716374
101	0x37efd556	2.8590362e-05
102	0x3b0c790d	0.0021434457
103	0xbacdce93	-0.0015701823
104	0xbb0ebc2f	-0.0021779647
105	0xba3a2972	-0.0007101513
106	0x3b014712	0.00197262
107	0xba0849e8	-0.0005199001
108	0xbb82652b	-0.0039793453
109	0x3b0639c0	0.00204812
110	0xb988b281	-0.00026072937
111	0xbaa8a245	-0.0012865743
112	0xba84d503	-0.0010134283
113	0x3b654494	0.0034983503
114	0xba0db71a	-0.00054060074
115	0xba1c9a4f	-0.00059739215
116	0x3b32a167	0.0027256848
117	0x3bf9b084	0.0076199193
118	0x3abd3b28	0.0014437186
119	0xbab3ec1b	-0.0013726981
120	0x3b07ef70	0.002074208
121	0x3c83db2d	0.016095722
122	0x3c1cb2fd	0.0095641585
123	0x39dfae76	0.00042663858
124	0xbbb209c4	-0.005433293
125	0x3b8d8932	0.0043193335
126	0x3c8177b3	0.015804147
127	0x3ccd15cf	0.025034813
128	0x3d3597ae	0.044334106
129	0xbca74912	-0.020420585
130	0xbbc9c935	-0.006158019
131	0xbb0baa30	-0.0021311156
132	0xbd327bfb	-0.04357527
133	0xbca0f2aa	-0.019646961
134	0x3c75e5c5	0.015008395
135	0xbc0970e4	-0.008388732
136	0xbcb372be	-0.0219053
137	0x3c4b45d4	0.012406785
138	0x3a6bdbe4	0.0008997305
139	0xbc314eb3	-0.010821986
140	0xb99e8c52	-0.00030240655
141	0xbc57713d	-0.013149557
142	0xbc0de04c	-0.008659434
143	0xbca2e550	-0.019884735
144	0xbc540bca	-0.012942264
145	0x3b99b380	0.0046905875
146	0x3cbfd26a	0.023415763
147	0xbb1cf2c9	-0.0023948422
148	0xbc678edc	-0.014133181
149	0xbbd33a89	-0.006446187
150	0xba0b5341	-0.0005314835
151	0xba1305fa	-0.00056084956
152	0xba11ce20	-0.0005562026
153	0xb99b91db	-0.00029672575
154	0x3954b128	0.00020283891
155	0xb972b51f	-0.00023146391
156	0xb92f7a68	-0.000167349
157	0xb992bf31	-0.0002798974
158	0xb8dc3461	-0.00010500174
159	0xb9e96355	-0.0004451523
160	0xb9d1f331	-0.00040044778
161	0xba31c2e2	-0.0006781054
162	0x39fccca2	0.0004821765
163	0x383f77c8	4.5649504e-05
164	0xb9f8e1d6	-0.00047470507
165	0xb98c0568	-0.0002670691
166	0xb96dade2	-0.00022666858
167	0x39ba44ba	0.0003552789
168	0x391016d4	0.00013741414
169	0xb8e7ed5f	-0.00011059152
170	0x3903bf97	0.00012564506
171	0x39990b9d	0.00029191087
172	0xba09b9b3	-0.00052538066
173	0xb9ef32be	-0.00045623438
174	0x3997ae13	0.0002893066
175	0x3b470f9b	0.0030374292
176	0xbc99b85b	-0.018764665
177	0xbce9e896	-0.028553288
178	0xbd339862	-0.043846495
179	0xbcc69bbd	-0.024244184
180	0xbaab7d7c	-0.0013083662
181	0xbd0f7275	-0.035021264
182	0xbccb737c	-0.02483534
183	0xbd56ba3c	-0.0524237
184	0xbceb9f35	-0.02876244
185	0xbcb8af5c	-0.022544555
186	0xbdae3e54	-0.08507982
187	0xbb66257b	-0.0035117555
188	0xbd99cbf1	-0.07509602
189	0xbc3375ae	-0.01095335
190	0xbc840636	-0.016116243
191	0x3af9e5bd	0.001906566
192	0x3d22f866	0.039787672
193	0xbbe638d8	-0.0070258193
194	0xbc763f3c	-0.015029725
195	0x3c7958b8	0.015218906
196	0x3d82d46c	0.063881725
197	0x3d3cea9f	0.04612219
198	0xbc8b649e	-0.017015751
199	0xbc98bbbb	-0.018644204
200	0x3c15f195	0.009151836
201	0xbc6dbd69	-0.014510491
202	0xbbad58bf	-0.0052901204
203	0xbc56d19e	-0.0131115
204	0x3ccecc11	0.02524379
205	0xbc643bf9	-0.013930314
206	0x3d34186c	0.043968603
207	0xbbcbf402	-0.0062241564
208	0xbc6c0eef	-0.014407857
209	0xbcc04108	-0.02346851
210	0x3d5ded6a	0.054181494
211	0x3d7dec1e	0.061992757
212	0x398c4545	0.0002675449
213	0xbcbaa436	-0.02278338
214	0xbc8b0413	-0.016969716
215	0x3c8838f5	0.016628722
216	0x3c7865ef	0.015161022
217	0x39950208	0.00028421008
218	0x3c4ba1ef	0.012428745
219	0x3cac7fd8	0.021057054
220	0xbd7ea843	-0.062172186
221	0xbd626b5a	-0.05527816
222	0xbcffd595	-0.031229774
223	0x3d55e41b	0.05221949
224	0x3cef2ab3	0.029195165
225	0xbb8bdf5d	-0.0042685703
226	0xb9870905	-0.00025755927
227	0xbcccfd6e	-0.025023188
228	0xbc440c73	-0.011965859
229	0xbd46d814	-0.048545912
230	0xbb47ea8f	-0.0030504798
231	0x3b08462a	0.0020793774
232	0xbc096317	-0.008385441
233	0xbc1995c2	-0.009374084
234	0xbc748173	-0.014923441
235	0xbcba1446	-0.022714745
236	0xbb3a7656	-0.0028451881
237	0xbd16dac9	-0.036829744
238	0x3bc6d1c2	0.0060674855
239	0xbccea1e5	-0.025223682
240	0x3b1e1e74	0.0024127038
241	0xbb011eb4	-0.0019702138
242	0x3caec230	0.02133283
243	0x3b0f3c1f	0.0021855903
244	0xbd63fbec	-0.055660173
245	0x3c3a2a98	0.011362694
246	0x3cf62b2e	0.030049887
247	0x3b3b151c	0.0028546518
248	0xbcbfbf93	-0.02340678
249	0xbd568d30	-0.05238074
250	0xb8a41507	-7.824046e-05
251	0xb9386930	-0.00017586793
252	0x39ae218d	0.00033212863
253	0xb9ef4e6d	-0.00045644064
254	0xb9ae52a8	-0.0003324945
255	0x39b8c722	0.0003524358

model.7.bias f4 [120]
0	0xbcba3938	-0.022732362
1	0x38c43ba1	9.357115e-05
2	0xb83ceb49	-4.504182e-05
3	0x3d48a445	0.048984785
4	0x37e88d1a	2.772226e-05
5	0x3986f5b6	0.0002574154
6	0xb9904a25	-0.00027521062
7	0x39b06920	0.0003364766
8	0xbacb929a	-0.0015531362
9	0xbd78b58c	-0.06072001
10	0x3ca3e82e	0.020008173
11	0xbc815eed	-0.015792334
12	0x3ce59280	0.028023958
13	0x3d0354c2	0.032063253
14	0x3d3b8436	0.045780383
15	0x3e3f72f9	0.18696202
16	0xbcd38d00	-0.02582407
17	0x3c9af5d8	0.018916056
18	0xbbd8e097	-0.00661857
19	0xbd1f4d51	-0.038892094
20	0xbcc16270	-0.023606509
21	0x3d1761de	0.036958568
22	0x3c511fb7	0.012763909
23	0xb805e2ec	-3.192101e-05
24	0x3b85236f	0.004063062
25	0x3953e1b7	0.00020206613
26	0xbd8c5c5e	-0.06853555
27	0xbdf2059e	-0.11817478
28	0xb9272772	-0.00015941056
29	0x3dfc44e3	0.123178266
30	0x3d6e25b2	0.058141418
31	0xb99c0efe	-0.0002976581
32	0x3c2cfb10	0.010557905
33	0xb9a4beda	-0.00031422713
34	0xbb005e97	-0.001958763
35	0xbbce6e1f	-0.0062997486
36	0x3b0483a6	0.002022007
37	0x3d00932b	0.03139035
38	0x3be894fe	0.0070978394
39	0xbc4505a7	-0.012025273
40	0x3cc04352	0.0234696
41	0x3acb3583	0.0015503619
42	0x3d9163e4	0.07099131
43	0xbd736e2b	-0.059431236
44	0x3d37733f	0.04478764
45	0xbd001880	-0.031273365
46	0xbb64fd4b	-0.0034941013
47	0x3c2ad6a9	0.0104271555
48	0xb9de367a	-0.00042383728
49	0x3cc1d5ec	0.023661576
50	0x3aae6cac	0.0013307533
51	0xbcaa24c9	-0.020769494
52	0x3debd4ba	0.11515184
53	0xba7a80dc	-0.00095559447
54	0xbd529c3c	-0.051418528
55	0x3d69b855	0.05706056
56	0x3d62b594	0.055348948
57	0xbc3d23cf	-0.011544182
58	0x3c9d622b	0.01921185
59	0xba287c7f	-0.0006427243
60	0x3c8217fa	0.015880574
61	0x3d0e5982	0.03475333
62	0xbaeeb12c	-0.001821076
63	0xbbeb0be8	-0.00717305
64	0xb87d4e16	-6.0392624e-05
65	0x3d729387	0.059222724
66	0xbd37efd7	-0.044906463
67	0x3cce0e20	0.02515322
68	0xbd26b8e6	-0.040703677
69	0x3b820d7b	0.003968892
70	0xbc14afb0	-0.00907509
71	0x3dfa5076	0.12222378
72	0x3c4a2312	0.012337463
73	0x3c305285	0.010761862
74	0xbdcf15f7	-0.10111611
75	0xbcb37d76	-0.02191041
76	0x3d212b5f	0.039348003
77	0x38f9120e	0.00011876608
78	0xb9d01f11	-0.00039695998
79	0x3ae59d29	0.0017518151
80	0xbca39bb1	-0.0199717
81	0xbd6b2d3e	-0.057416193
82	0x3db3b69c	0.08775064
83	0x3cedeb33	0.029042816
84	0xbd74294d	-0.0596097
85	0xbc46ad0a	-0.012126217
86	0xbc7e8775	-0.015535225
87	0xba93004c	-0.0011215298
88	0xbde495ef	-0.1116141
89	0x3cd608ed	0.026127303
90	0xb9845877	-0.00025242913
91	0x3dd54d3c	0.10415122
92	0x3d1e3ec9	0.038634095
93	0x3d074e8c	0.033033893
94	0x3a915b2e	0.0011089796
95	0xbad25d62	-0.0016049559
96	0x3d26cdfd	0.04072379
97	0x3a039c22	0.0005020519
98	0x3cd91b8b	0.026502391
99	0x3ce0b150	0.0274283
100	0xbe13acb6	-0.14421353
101	0x3e0a7028	0.13519347
102	0x3d1df86c	0.03856699
103	0x3b2824ec	0.0025656773
104	0x3d62a1ed	0.055330206
105	0xbdd66811	-0.10469068
106	0x3bb1206c	0.0054054763
107	0x3ce33fa2	0.027740303
108	0x3d61a094	0.05508478
109	0x3d472627	0.04862037
110	0x3e01ce03	0.12676243
111	0x3e42f07f	0.19037054
112	0xbbc98b32	-0.0061506266
113	0x3dbc1f79	0.091856904
114	0xb9c91df5	-0.00038360027
115	0xbb169ee3	-0.0022982887
116	0x3cd753ca	0.02628507
117	0x3c1c79df	0.009550541
118	0xbd4458e4	-0.047936335
119	0xbc98fc91	-0.01867512

model.9.weight f4 [84, 120]
0	0x3a24a022	0.0006279965
1	0x3a243cad	0.0006265145
2	0xba62fc2c	-0.00086587924
3	0xba8da708	-0.0010807225
4	0x3a084e8b	0.0005199692
5	0xb900775e	-0.00012251499
6	0x39c325a0	0.0003722133
7	0xba14648d	-0.0005660735
8	0xb8268740	-3.9703446e-05
9	0xba13c8c9	-0.00056375243
10	0x3912ace6	0.00013988055
11	0x39c5819d	0.00037671337
12	0x393b8b51	0.00017885609
13	0x3a200197	0.00061037525
14	0xba5cc84f	-0.0008422182
15	0x39106af1	0.00013772749
16	0xba07ba9d	-0.0005177649
17	0x3a2f004d	0.0006675765
18	0x39dc46ee	0.00042014517
19	0x398d9c31	0.00027009987
20	0x38a83640	8.020969e-05
21	0x39fbeee6	0.00048052444
22	0x3941448e	0.00018431453
23	0x393caa64	0.00017992553
24	0x3a357938	0.0006922665
25	0xba2412db	-0.0006258913
26	0xba5e3de5	-0.0008477851
27	0xba07de41	-0.000518296
28	0x392806c3	0.00016024247
29	0xb9eb3060	-0.00044858735
30	0xb9974f09	-0.0002885985
31	0xb88f600c	-6.8366615e-05
32	0x3979d4fe	0.00023825836
33	0x39a040b7	0.00030565794
34	0xba10005e	-0.0005493219
35	0x39c48c2e	0.00037488475
36	0xb9647e41	-0.00021790808
37	0x38df16bd	0.00010637704
38	0xba895504	-0.0010477607
39	0xb99ee6a0	-0.00030307937
40	0xb8fbe80a	-0.00012011833
41	0xba3e320b	-0.0007255382
42	0xba6e819d	-0.00090982934
43	0xba8cb6ac	-0.0010735593
44	0xb9fe394a	-0.0004848934
45	0x38552996	5.0821887e-05
46	0x3a0ab032	0.00052905374
47	0xb70c2b66	-8.354755e-06
48	0x3a22a60f	0.0006204554
49	0xb9f08700	-0.0004587695
50	0x397f7932	0.00024363844
51	0xba675fe6	-0.00088262407
52	0xb97048fb	-0.00022915371
53	0xba7cbb4c	-0.00096409465
54	0x3a7b7d4e	0.0009593562
55	0xb9e14426	-0.0004296612
56	0xb94d6ac7	-0.00019590101
57	0xb90fd0e4	-0.0001371536
58	0x3a0673da	0.00051289576
59	0x394544b4	0.00018812978
60	0xba2386c9	-0.0006238041
61	0xb9e01411	-0.0004273956
62	0x3a3fdb6f	0.000731877
63	0xb9f1537a	-0.00046029297
64	0xb69c7189	-4.6623795e-06
65	0x3a1dc942	0.00060190645
66	0x39a8655b	0.00032118973
67	0x39b37d8c	0.0003423508
68	0x3a012f7a	0.0004928034
69	0xb8582daa	-5.154094e-05
70	0x3991e9cc	0.00027830747
71	0x397268d9	0.00023117977
72	0xba59a277	-0.0008302102
73	0xba41f887	-0.0007399399
74	0xb9a77a0a	-0.00031943648
75	0x3a270f47	0.0006372821
76	0xb91c7ad8	-0.00014923082
77	0xb8a8751c	-8.0326776e-05
78	0xb9f01bf9	-0.00045797208
79	0x39af846b	0.0003347726
80	0xba7477a9	-0.0009325692
81	0x38d65a0a	0.00010221086
82	0x39ed277a	0.00045233575
83	0xb72aa39c	-1.0170883e-05
84	0x3882d6b2	6.238873e-05
85	0xba49528a	-0.0007679841
86	0x39ef2c31	0.00045618557
87	0xba6269b6	-0.0008636968
88	0xb923e253	-0.00015629204
89	0x39bced4b	0.0003603495
90	0xb851f595	-5.00582e-05
91	0x39be3371	0.0003627795
92	0xba86c9a6	-0.0010283485
93	0xb94483b5	-0.00018741081
94	0x39561541	0.00020416548
95	0x38896ded	6.553144e-05
96	0x393c1c83	0.00017939699
97	0xba3024f9	-0.00067193765
98	0xb79a14a4	-1.8367842e-05
99	0xba64d75b	-0.00087296
100	0xb9af1069	-0.00033390828
101	0x39ec040f	0.00045016452
102	0xb9cafa22	-0.00038714806
103	0xba3498e7	-0.00068892393
104	0x39330707	0.00017073388
105	0x391eb57d	0.00015135664
106	0x3a583ba2	0.0008248632
107	0x3991be0d	0.00027798154
108	0x39c51988	0.0003759379
109	0xba45fe1e	-0.000755282
110	0xb9a75b38	-0.00031920685
111	0x3889ef41	6.5772336e-05
112	0x39d9472a	0.00041442487
113	0xba0d1a19	-0.0005382612
114	0x39cbb262	0.00038852083
115	0xba0efe4a	-0.0005454762
116	0xb8a02330	-7.635949e-05
117	0x37eaac61	2.7975244e-05
118	0x38988864	7.2733295e-05
119	0xb70e4da0	-8.481933e-06
120	0xbc423940	-0.01185447
121	0xbb011246	-0.001969473
122	0xb9f88b2c	-0.00047405937
123	0x3cad0758	0.021121666
124	0x3a28887b	0.00064290286
125	0xb6f1d6eb	-7.2073794e-06
126	0xba58c1d7	-0.00082686305
127	0xbb0195f8	-0.0019773226
128	0x3d1eca19	0.038766954
129	0xbdf669c4	-0.12031892
130	0xbcc5d385	-0.024148712
131	0xbe1de3a9	-0.15418877
132	0xbc819adf	-0.015820919
133	0x3e326d90	0.17424607
134	0xbd9c5482	-0.07633306
135	0x3cf66346	0.030076634
136	0xbd18bc2b	-0.037288826
137	0xbd0473ed	-0.032337118
138	0xbc3d735e	-0.01156315
139	0xbd04d2b9	-0.032427523
140	0xbcced6f7	-0.025248988
141	0x3cb1f7fd	0.021724695
142	0xbcf25b66	-0.029584598
143	0xb84e398e	-4.916783e-05
144	0x3d830ad8	0.06398553
145	0xba3de48c	-0.0007243834
146	0xbd735a48	-0.05941227
147	0x3c8d9ec7	0.017287625
148	0xba216e4b	-0.00061580975
149	0xbc146dcd	-0.009059382
150	0xbdfb80bc	-0.122804135
151	0xbab62e08	-0.0013899216
152	0x3e5c469c	0.2151131
153	0xbaf67635	-0.0018803539
154	0x3b937a21	0.004500643
155	0x3daac41f	0.083381884
156	0x39351615	0.00017269731
157	0xbc4b2287	-0.012398369
158	0xbc6123f8	-0.013741486
159	0xbd1a794f	-0.037713345
160	0xbc033236	-0.008007577
161	0xbb28205b	-0.002565405
162	0xbe3535be	-0.17696282
163	0xbe868a51	-0.26277402
164	0xbd1d4a87	-0.038401153
165	0xbe6e8d61	-0.2329612
166	0xbd90a5ce	-0.07062875
167	0xbd43c6f8	-0.047797173
168	0xba72d2c7	-0.00092629757
169	0x3d96f274	0.07370463
170	0xba8aa480	-0.0010577589
171	0xbdb648b3	-0.08900585
172	0xbce5989a	-0.028026868
173	0xbab2a756	-0.0013630192
174	0xbceba25a	-0.028763939
175	0x3e08c6ee	0.13357136
176	0xbe1497a9	-0.14510979
177	0x3d5779e0	0.052606463
178	0x3bbbc443	0.0057301833
179	0xba8c020e	-0.0010681765
180	0xbca02522	-0.019548956
181	0xbd1f8ed7	-0.038954582
182	0xbb0f29e7	-0.0021845044
183	0xbce4a7f9	-0.027912127
184	0xbae6e08e	-0.001761453
185	0x3bef4ba3	0.007302718
186	0x3d61c290	0.05511719
187	0xbdda2482	-0.106514946
188	0xbd60b7ca	-0.054862775
189	0xbd63e298	-0.05563602
190	0x3cfc5ddd	0.030806476
191	0x3d716df2	0.058942743
192	0xbbc943ce	-0.006142116
193	0xbb6eb9a7	-0.0036426575
194	0x3e926fa1	0.2860079
195	0xbd331fb7	-0.043731418
196	0x3ba18a25	0.004929798
197	0xba40b507	-0.0007351194
198	0x3932f217	0.00017065588
199	0x3b70a832	0.0036721346
200	0xbdcb09a0	-0.09913945
201	0x3d4c3d00	0.04986286
202	0x3e78eb72	0.24308565
203	0x3b0cea0c	0.0021501807
204	0x3e64370d	0.22286625
205	0x3b958a9d	0.004563643
206	0x3d23ba48	0.039972574
207	0xbdfb5669	-0.12272341
208	0x3ebbd49d	0.3668565
209	0x3bd3b9c4	0.006461354
210	0x3716a4f2	8.979101e-06
211	0xbcf22eff	-0.029563425
212	0xbcaa551e	-0.02079254
213	0xbd6a53bf	-0.057208773
214	0xbc9dce8f	-0.019263534
215	0xbc8699b4	-0.016430713
216	0x3c77dbdd	0.015128103
217	0x3a54a3b3	0.0008111551
218	0x3cb8013d	0.022461528
219	0xbd11e82f	-0.03562182
220	0xbd8a9efd	-0.06768606
221	0xbcc0b0b7	-0.023521764
222	0x3c2371f3	0.009975898
223	0x34af5e80	3.2665048e-07
224	0x3e4ec2c8	0.2019149
225	0x3ea1e3a6	0.31618994
226	0x3cc26010	0.023727447
227	0x3cee3239	0.029076682
228	0x3c9b481c	0.018955283
229	0x3e135f2f	0.14391778
230	0xbe57a9db	-0.21060888
231	0xbcd97126	-0.026543211
232	0xbc93152e	-0.017954435
233	0xbd00c97c	-0.03144215
234	0x3a048ac6	0.0005056079
235	0xbdea2996	-0.11433713
236	0x3bf1028e	0.007355041
237	0x3d05a719	0.03263006
238	0xbcea5ef6	-0.028609734
239	0x3d403920	0.04692948
240	0xbb01e408	-0.0019819755
241	0xba8585d6	-0.0010186981
242	0xb862d0da	-5.4077107e-05
243	0x3c6eee04	0.014583115
244	0x3a4ad5d5	0.0007737552
245	0xba32b8fb	-0.00068177254
246	0xba162212	-0.0005727123
247	0xba5c29b6	-0.00083985494
248	0xbbd6c1b7	-0.0065538543
249	0xbb7d2677	-0.0038627663
250	0x3c5e45a2	0.013566406
251	0x3c3e8046	0.011627262
252	0xbae5733d	-0.0017505657
253	0xbbdd6d87	-0.0067574414
254	0x3a5a71d5	0.00083330023
255	0xbb37291b	-0.0027948085

model.9.bias f4 [84]
0	0xba7bcf73	-0.00096058025
1	0xbca0bb89	-0.019620674
2	0x3bcf82de	0.0063327393
3	0x3d0f2b59	0.03495345
4	0x3d738c3e	0.059459917
5	0x3dfbf27c	0.123021096
6	0x3d9773a5	0.07395104
7	0xb9f164a7	-0.00046042094
8	0x3e193a0d	0.14963551
9	0x3cac693d	0.021046275
10	0x3cb00753	0.021487867
11	0xbcb9ea77	-0.02269481
12	0x3cb297e3	0.02180094
13	0x3dc6bd90	0.09704125
14	0xba86f1aa	-0.001029541
15	0x3c851b4b	0.016248366
16	0xba30a37a	-0.0006738227
17	0x3d35eb50	0.044413865
18	0x3d6428fe	0.055703156
19	0xbc042bcd	-0.008067084
20	0x3d9fc2f5	0.07800857
21	0x3e48fd77	0.19627939
22	0x3bf2d4ff	0.007410645
23	0x3c839779	0.016063439
24	0x3cdf4c33	0.027258014
25	0x3c19b08e	0.009380473
26	0x3d99a0c9	0.075013705
27	0x3c5d754b	0.013516734
28	0x3db1c6d0	0.086804986
29	0x3caa2283	0.02076841
30	0x3da37085	0.07980446
31	0xbd013d1a	-0.03155241
32	0x3d63c93d	0.055611838
33	0x3d0c9ed0	0.034331143
34	0x3d8b7cc1	0.06810904
35	0x3d4a3a11	0.049371783
36	0x3c55b9fd	0.013044831
37	0x3d177562	0.03697718
38	0x3b60b4a4	0.0034287358
39	0x3c8ca788	0.017169729
40	0x3e56fd24	0.20995003
41	0x3d788b6c	0.060679838
42	0x3e3dc448	0.18531907
43	0xbaa3c8a5	-0.001249571
44	0xba625562	-0.0008633939
45	0x3dff3b4e	0.12462483
46	0x3bdd00c1	0.0067444746
47	0x3c986d38	0.018606767
48	0x3dd8777c	0.10569665
49	0x3e9754ab	0.29556784
50	0x3c096c79	0.008387678
51	0x3d1c9ba8	0.038234383
52	0x3dadb286	0.08481316
53	0x3d1d4db5	0.038404185
54	0x3d95940f	0.073036306
55	0xbc0de619	-0.008660817
56	0x3b00b0ca	0.0019636624
57	0x3d54382a	0.051811375
58	0x3d55a315	0.05215748
59	0x3db5b86c	0.08873066
60	0x3d994df1	0.07485569
61	0xb9d9b6e0	-0.00041525718
62	0x3c98bda2	0.018645111
63	0x3d2eba6a	0.042658247
64	0x3da68f07	0.08132749
65	0x3e0a7380	0.13520622
66	0x3d6c0008	0.057617217
67	0xba2997db	-0.00064694666
68	0x3dec3612	0.115337506
69	0x3e043569	0.12911
70	0x3e0c5afc	0.13706583
71	0x3b9e14bd	0.0048242495
72	0x3d8d41ce	0.06897317
73	0xba93971f	-0.0011260248
74	0x3d73d194	0.05952604
75	0x3e441a5f	0.19150685
76	0x3cf3c380	0.029756308
77	0x3def24e3	0.116769575
78	0x3dd19adb	0.102346145
79	0x3c7facae	0.015605135
80	0x3d1fa573	0.038976144
81	0x3d59b263	0.05314864
82	0x3d982791	0.07429422
83	0x3e4a1196	0.19733271

model.11.weight f4 [10, 84]
0	0xb95064b4	-0.0001987394
1	0xbda4dd4e	-0.08050023
2	0xbbf87000	-0.007581711
3	0xbced3f7a	-0.028960932
4	0xbd6b3e55	-0.05743249
5	0xbcdc0f46	-0.026862752
6	0xbe07d48b	-0.13264672
7	0x38c61061	9.4444265e-05
8	0xbde3d407	-0.111244254
9	0xbd893b31	-0.06700743
10	0x3dc1a75d	0.0945575
11	0xbd8ec893	-0.0697185
12	0xbd2ff5e7	-0.04295912
13	0xbdc10106	-0.09424023
14	0x372c1bce	1.0258473e-05
15	0x3d6a039a	0.05713234
16	0xbb313db2	-0.002704483
17	0xbc19022a	-0.009338895
18	0x3ed9d17a	0.4254263
19	0xbaa7a857	-0.0012791258
20	0xbd284279	-0.04107902
21	0xbe69314e	-0.22772714
22	0x3e8de9c6	0.27717417
23	0x3f1c6510	0.6109171
24	0xbcb53061	-0.022117795
25	0x3f26ee88	0.6520772
26	0xbdbc0012	-0.09179701
27	0xbc78e3b5	-0.015191008
28	0xbd0ae88f	-0.03391319
29	0x3e8d9d0a	0.27658874
30	0xbe241615	-0.16024049
31	0xbdb3ad9f	-0.0877335
32	0xbe4609a8	-0.19339621
33	0x3e0a3d68	0.13499987
34	0xbd4fd800	-0.050743103
35	0xbda9b6b7	-0.08286803
36	0xbc9d9cce	-0.01923981
37	0xbe040815	-0.12893708
38	0xbc0b4606	-0.008500582
39	0xbcccb80d	-0.024990106
40	0xbe070cba	-0.13188449
41	0xbdaa5c23	-0.08318355
42	0x3df9fe92	0.122067586
43	0xba9e63d1	-0.0012084191
44	0x3a2f8672	0.0006695754
45	0xbd3d539a	-0.046222307
46	0x3df11384	0.117713004
47	0x3d43b44c	0.047779366
48	0xbe15d787	-0.14632998
49	0xbe0f90f1	-0.14020135
50	0xbe0638e5	-0.13107641
51	0xbe1894ad	-0.14900465
52	0xbd36ca1e	-0.044626348
53	0xbdbe04f4	-0.092782885
54	0x3e83239c	0.25613105
55	0xbdb583f6	-0.0886306
56	0xbcc18561	-0.02362317
57	0xbdc11a25	-0.09428815
58	0xbda4c738	-0.080458105
59	0xbdbee764	-0.09321478
60	0xbd6044ec	-0.05475323
61	0x3a3c7da9	0.00071903557
62	0xbd8fa1b3	-0.070132636
63	0xbd2136ed	-0.039359022
64	0x3e3d8be6	0.18510398
65	0x3d08a73b	0.03336261
66	0xbda55228	-0.08072311
67	0x3a601699	0.0008548289
68	0x3ec1fee0	0.37889767
69	0xbdf96853	-0.121781014
70	0xbd9e74fd	-0.077371575
71	0x3edd4079	0.4321325
72	0xbdcbd84a	-0.09953363
73	0x3a7f607c	0.00097418553
74	0xbd9def2b	-0.07711633
75	0xbe0b69f0	-0.1361463
76	0xbd02563b	-0.031820517
77	0xbe711a87	-0.23545276
78	0xbd97f62f	-0.07420003
79	0xbd65b040	-0.05607629
80	0xbde53763	-0.11192205
81	0xbe3e0cbf	-0.1855955
82	0xbddce438	-0.10785717
83	0x3c983d33	0.01858387
84	0xba7406e9	-0.0009308891
85	0xbe27786d	-0.16354533
86	0xbc422620	-0.01184991
87	0xbd2572ec	-0.0403928
88	0xbd8a27cd	-0.06745873
89	0x3c3648aa	0.011125723
90	0x3e82e224	0.25563157
91	0xb9f5a5f3	-0.00046853683
92	0xbcf83fd0	-0.030303866
93	0xbdbc8f39	-0.09207005
94	0xbcc3f7d4	-0.023921885
95	0xbde3255a	-0.110911086
96	0x3d34ae10	0.04411131
97	0x3e6d7e80	0.23192787
98	0xb9c73935	-0.0003799886
99	0xbd3e7316	-0.046496473
100	0xba247e7d	-0.0006274952
101	0xbe2d3201	-0.16913606
102	0xbe0b65b1	-0.13613011
103	0xbcca7a19	-0.024716424
104	0xbceac1b4	-0.028656818
105	0xbe4c05d5	-0.199241
106	0xbe2f5818	-0.17123449
107	0xbe17a2c2	-0.14808181
108	0xbc32c382	-0.0109108705
109	0xbd1d62bf	-0.03842425
110	0xbe4ad744	-0.1980868
111	0xbb3acca3	-0.002850332
112	0x3e5f9008	0.21832287
113	0xbd16c64e	-0.03681021
114	0xbcd5dadd	-0.026105339
115	0xbdf1ec72	-0.118126765
116	0xbc4bc22e	-0.012436433
117	0xbcf7dea3	-0.030257529
118	0x3ed6947c	0.4191016
119	0xbbbcd65f	-0.0057628597
120	0x3ccb9ebc	0.024855964
121	0x3c847c62	0.016172592
122	0x3d5489cf	0.051889237
123	0xbbc36971	-0.0059634973
124	0xbdbe2e74	-0.09286204
125	0xbc9c6c42	-0.01909459
126	0xbe397701	-0.18111803
127	0x394d105c	0.00019556418
128	0xb9046e67	-0.00012629629
129	0x3da8677e	0.082228646
130	0xbd24f300	-0.040270805
131	0xbd856b02	-0.06514551
132	0x3da9aa6a	0.08284457
133	0x3d13b407	0.03606036
134	0x3e51ffca	0.20507732
135	0xbd966724	-0.07343891
136	0x3e537471	0.20649888
137	0x3dcea0e7	0.100892834
138	0xbe0eeeb5	-0.13958247
139	0xbde27f80	-0.11059475
140	0xbcc60f62	-0.024177257
141	0x3d0b25cd	0.033971597
142	0xbcd1adca	-0.025595564
143	0xbdeb987c	-0.115036935
144	0xbd029ae8	-0.03188601
145	0xb912ebc6	-0.00014011477
146	0xbd8c1ba2	-0.06841208
147	0xbd9a557f	-0.07535838
148	0xbda4af3a	-0.08041234
149	0x3ef101d8	0.4707172
150	0xbd7524b9	-0.059849475
151	0xbb1c98c6	-0.002389477
152	0x3d919f59	0.07110471
153	0xbe0fb40b	-0.14033525
154	0x3f748d51	0.9552813
155	0x3d0fc5c8	0.03510073
156	0x3e88adaa	0.26694995
157	0xb993a5b7	-0.00028161492
158	0xbd89f76b	-0.06736644
159	0xbe6995ee	-0.228111
160	0x3e16ff43	0.14745812
161	0xbe0082b3	-0.12549858
162	0x3ee4e785	0.44707885
163	0x3bd1a5af	0.006397925
164	0xbe288150	-0.16455579
165	0xbe8082e9	-0.25099877
166	0xbe21cd88	-0.1580106
167	0x3de13bfc	0.10997769
168	0x390e22fe	0.00013555211
169	0xbe259ef9	-0.16173925
170	0x3d179ade	0.037012927
171	0xbd00c2b8	-0.0314357
172	0x3d619baf	0.055080112
173	0xbdd15d7d	-0.102229096
174	0x3e9bec34	0.30453646
175	0xb9896c7d	-0.00026211506
176	0x3ea0f911	0.31440023
177	0xbd99af54	-0.07504144
178	0x3df5beed	0.11999307
179	0xbd12bad8	-0.03582272
180	0xbdb0f880	-0.086411476
181	0xbe005f00	-0.1253624
182	0x397b40eb	0.00023961409
183	0x3db03434	0.08603707
184	0x3a737121	0.0009286572
185	0x3f2b599d	0.66933614
186	0x3eb6cc61	0.35702804
187	0xbca0c6c5	-0.01962603
188	0xbd4ad8fb	-0.049523335
189	0x3e62c6ae	0.22146103
190	0xbe328578	-0.17433727
191	0x3e1046ae	0.14089462
192	0x3a01c7cb	0.0004950731
193	0xbe71dff4	-0.23620588
194	0x3f08e760	0.5347805
195	0x3c34e71c	0.011041429
196	0xbe2e38e9	-0.17013897
197	0x3df6574c	0.12028369
198	0xbd20cf8d	-0.039260436
199	0xbd63de58	-0.055631965
200	0xbd02a9b9	-0.03190014
201	0xbd9a0e48	-0.07522255
202	0x3dca2fda	0.09872408
203	0xbbe827ac	-0.0070848074
204	0xbc6b76ba	-0.014371568
205	0xbdf52946	-0.11970763
206	0xbc4edcdd	-0.0126259
207	0xbca839a3	-0.020535296
208	0x3ec717bd	0.38885298
209	0x3e9d2f10	0.30699968
210	0x3df1f18f	0.11813652
211	0x3af17669	0.001842213
212	0xba885bf5	-0.0010403382
213	0xbddb4d9b	-0.107081614
214	0xbd7417f3	-0.059593152
215	0x3e66bb5d	0.22532411
216	0xbdd31767	-0.10307198
217	0xbe60bcc2	-0.21947005
218	0xbc757f71	-0.014983998
219	0xbe31d2ca	-0.17365566
220	0x3ddf4a47	0.10902839
221	0xbdaba4dc	-0.08381054
222	0xbe57a4d1	-0.21058966
223	0xbdd33e66	-0.10314636
224	0xbca36ebb	-0.019950261
225	0x3d2eef87	0.0427089
226	0xbd582367	-0.052768137
227	0xbd5712d4	-0.05250819
228	0xbd9acb1c	-0.07558271
229	0x391e7768	0.00015112536
230	0xbd381839	-0.044944976
231	0x3d1b5f60	0.037932754
232	0x3bf89058	0.0075855665
233	0xbe8b2bfa	-0.2718199
234	0xbdb655c0	-0.08903074
235	0x3af08638	0.0018350547
236	0xbe916d46	-0.28403682
237	0xbe22ffec	-0.15917939
238	0xbdcdef3a	-0.100553945
239	0xbe4562c2	-0.19275954
240	0xbdc713f4	-0.09720603
241	0xba512542	-0.0007978269
242	0xbd9c7d6f	-0.07641112
243	0xbe03bdec	-0.12865418
244	0x3e1acf9b	0.15118258
245	0xbd898349	-0.06714494
246	0x3ec80b6e	0.3907122
247	0xbc361fcf	-0.011115982
248	0xbcb22def	-0.021750418
249	0xbe00e9f3	-0.12589245
250	0xbdfb2d84	-0.12264541
251	0xbe14e2c0	-0.14539623
252	0x390d322a	0.00013465495
253	0xbe67c7f2	-0.22634867
254	0xbbd7b7e7	-0.006583202
255	0xbd16567a	-0.036703564

model.11.bias f4 [10]
0	0xbd8b277a	-0.06794639
1	0x3c90ea18	0.01768975
2	0xbd1059d8	-0.03524193
3	0x3d713b8f	0.05889469
4	0xbcd22c9a	-0.025656033
5	0xbe07c75a	-0.1325964
6	0xbe1a8b7a	-0.15092269
7	0x3bb4ff6d	0.005523613
8	0x3ea2db9b	0.3180817
9	0x3c749e29	0.014930286
